netlookup/lsk_block.onnx (onnx, 48666 bytes, 12 tensors)

conv0.weight f4 [64, 1, 5, 5]
0	0xbd8f0b10	-0.06984532
1	0xbc389060	-0.01126489
2	0xbdccbc83	-0.09996893
3	0x3e0efef9	0.13964452
4	0xbde93503	-0.11387064
5	0x3e1eba05	0.15500648
6	0x3e21e0b5	0.15808375
7	0xbdd06f9d	-0.101775385
8	0xbc793fa0	-0.015212923
9	0x3df6812e	0.12036358
10	0x3e1a5467	0.1507126
11	0xbd81cedc	-0.063382834
12	0xbd32240c	-0.04349141
13	0xbdf07b40	-0.11742258
14	0xbdd8b483	-0.10581305
15	0xbd066dc0	-0.03281951
16	0x3de920be	0.11383198
17	0x3e308b33	0.172406
18	0xbe0068a5	-0.12539919
19	0xbe1a5725	-0.15072306
20	0xbdb4a83d	-0.088211514
21	0xbe1dc3a8	-0.15406668
22	0xbddc7520	-0.10764527
23	0x3e4ba1b9	0.19885911
24	0x3e321eaf	0.17394517
25	0xbdcf4860	-0.10121226
26	0xbc059850	-0.00815399
27	0x3e4b3e61	0.19848014
28	0xbe158046	-0.14599714
29	0x3d04a5b4	0.03238459
30	0x3e4cb721	0.19991733
31	0xbe3820d3	-0.17981271
32	0xbe04eecd	-0.1298172
33	0x3dfbb792	0.12290873
34	0xbd36bff4	-0.044616655
35	0xbdc49167	-0.09598046
36	0x3d52dca4	0.05147995
37	0x3de03f1e	0.10949539
38	0xbe052326	-0.1300169
39	0xbe0b0b65	-0.13578565
40	0x3d2dd888	0.04244283
41	0x3e2f6edd	0.17132135
42	0x3e3d3c71	0.18480088
43	0xbe1865d2	-0.14882591
44	0x3d06b608	0.032888442
45	0x3df3aef6	0.118986055
46	0xbdb1da8a	-0.08684261
47	0x3dac9bce	0.08428155
48	0x3d23e4f8	0.040013283
49	0xbe3b8f0f	-0.18316291
50	0x3e3fb8f9	0.18722905
51	0xbe078414	-0.13233978
52	0x3e2c6277	0.16834436
53	0x3dee902a	0.11648591
54	0x3d90c16e	0.07068144
55	0x3cc001c0	0.023438334
56	0x3e281179	0.16412915
57	0x3de0298a	0.10945423
58	0x3e1d2427	0.15345822
59	0x3de63c2a	0.11241944
60	0xbe40e31a	-0.18836632
61	0xbe4b16b5	-0.19832881
62	0xbdb5a53a	-0.08869405
63	0x3de51ed6	0.11187522
64	0xbd209200	-0.039201736
65	0x3e0d8ceb	0.13823287
66	0xbb7bc940	-0.0038419515
67	0x3e2a00c3	0.16601853
68	0xbd54b898	-0.051933855
69	0xbd9395f0	-0.07206333
70	0x3db9cb12	0.09071936
71	0xbe17b585	-0.14815338
72	0xbdc6d26a	-0.09708102
73	0xbe0e7326	-0.13911113
74	0xbd25aa78	-0.040445775
75	0xbdb96c17	-0.090538196
76	0x3e08e4bb	0.13368504
77	0xbe1b414b	-0.15161626
78	0xbe358855	-0.17727788
79	0xbdb92b9a	-0.090415195
80	0xbd5a9ae0	-0.053370357
81	0xbe406e9f	-0.18792199
82	0xbcb42990	-0.021992475
83	0xbd836d5a	-0.064173415
84	0x3d9e715a	0.07736464
85	0xbd0f2f18	-0.03495702
86	0x3d120774	0.03565164
87	0x3dd95382	0.10611631
88	0x3e23c97f	0.15994833
89	0x3dafcde2	0.08584191
90	0xbe21c706	-0.15798578
91	0x3e14ae2f	0.14519571
92	0x3d0e3a60	0.03472364
93	0xbb712000	-0.0036792755
94	0x3bc75960	0.0060836524
95	0xbd0c66f4	-0.03427787
96	0x3defc776	0.11707966
97	0xbe085575	-0.1331385
98	0xbcccdf90	-0.025008947
99	0xbd69f9f4	-0.05712314
100	0xbd4e7d38	-0.050412387
101	0x3d57bd44	0.052670732
102	0xbd08b76c	-0.03337805
103	0xbe0efa4e	-0.13962671
104	0xbdee69fa	-0.11641307
105	0x3de7904e	0.11306821
106	0xbe134040	-0.14379978
107	0x3d9ecd36	0.07753985
108	0x3d4c5474	0.04988523
109	0xbc6381e0	-0.013885945
110	0xbdb52817	-0.08845537
111	0x3c3dc5b0	0.011582777
112	0xbe2a3938	-0.1662339
113	0xbe197a9b	-0.14988177
114	0xbe42009d	-0.18945546
115	0x3e19f431	0.15034558
116	0xbdbb5b80	-0.091483116
117	0x3d947346	0.07248549
118	0x3e2ab531	0.16670682
119	0x3c15dc80	0.00914681
120	0x3c93f8a8	0.018062904
121	0x3d42fbe0	0.047603488
122	0xbda2b27d	-0.079442
123	0x3e3bdadd	0.18345208
124	0xbded9693	-0.116009854
125	0x3de1d9b2	0.1102785
126	0x3cf22d18	0.029562518
127	0xbe13a8e0	-0.1441989
128	0x3d2cf6f8	0.042227715
129	0xbe1b18e3	-0.15146212
130	0x3d9c7df2	0.0764121
131	0x3dea1cb6	0.114312574
132	0xbe2de008	-0.16979992
133	0x3de1c3ee	0.11023699
134	0xbdbc1510	-0.09183705
135	0xbd0df428	-0.034656674
136	0x3e151d61	0.14561988
137	0xbe3faf77	-0.18719278
138	0xbe1c9a73	-0.15293293
139	0xbbdc3f00	-0.0067213774
140	0x3db35ad6	0.0875756
141	0xbe4b156f	-0.19832395
142	0xbdd5a470	-0.104317546
143	0x3c69c6e0	0.014268607
144	0x3df0d132	0.11758651
145	0xbde46bfa	-0.111534074
146	0xbe4b31e2	-0.19843248
147	0x3c261430	0.010136649
148	0x3c13deb0	0.009025261
149	0x3d3fdc54	0.04684098
150	0x3d7a592c	0.061120197
151	0xbe09118a	-0.13385597
152	0x3e3844ed	0.17995043
153	0xbe05c2c8	-0.13062584
154	0xbe0cfe58	-0.137689
155	0xbe01074c	-0.1260044
156	0xbe17fbfe	-0.14842221
157	0xbe3e2768	-0.1856972
158	0x3c042b80	0.008067012
159	0xbe027cbe	-0.12742898
160	0xbe02dc56	-0.12779364
161	0x3e4164b5	0.18886073
162	0x3e30b445	0.17256267
163	0xbd4334cc	-0.047657773
164	0x3e05d9f9	0.13071431
165	0xbdcc2687	-0.09968286
166	0xbe20084e	-0.15628168
167	0xbc2e23a0	-0.010628611
168	0xbdd51caa	-0.10405858
169	0xbba05d40	-0.0048939288
170	0x3d9e6482	0.07734014
171	0xbe1dbfbd	-0.15405174
172	0xbc2e65d0	-0.010644391
173	0x3c95c8e8	0.018284276
174	0x3dfd48b6	0.12367384
175	0xbdd2e0fd	-0.10296819
176	0xbda82163	-0.08209493
177	0xbe00210d	-0.12512608
178	0xbe1b1a16	-0.1514667
179	0xbc04fc50	-0.008116797
180	0x3dc2db32	0.095144644
181	0xbde79ec7	-0.11309581
182	0x3d8a10de	0.067414984
183	0x3df76e12	0.12081541
184	0x3d154480	0.03644228
185	0xbdd154a7	-0.10221224
186	0xbdd16923	-0.10225131
187	0x3e0b3239	0.13593377
188	0x3d9e93f6	0.07743065
189	0x3e336ba1	0.17521526
190	0xbd521238	-0.051286906
191	0x3c630b60	0.0138576925
192	0x3d825da2	0.06365515
193	0xbe129cfa	-0.14317694
194	0x3de14192	0.10998835
195	0x3d8e9d02	0.069635406
196	0xbe013fb2	-0.12621954
197	0x3bb2f560	0.00546138
198	0xbbf3c6a0	-0.0074394494
199	0x3d306918	0.043068975
200	0xbdde58ca	-0.10856779
201	0xbe3bba2a	-0.18332735
202	0xbd16a698	-0.03677997
203	0xbe30e1e7	-0.17273675
204	0xbe1a8ab5	-0.15091975
205	0xbe3bcf7f	-0.18340872
206	0x3d52257c	0.05130528
207	0xbcf89dd0	-0.030348688
208	0x3de5bef2	0.112180606
209	0xbe3055c3	-0.17220215
210	0xbd456938	-0.048196048
211	0x3bd19700	0.0063961744
212	0x3e022d61	0.12712623
213	0xbe1155c3	-0.14192872
214	0x3db27966	0.08714561
215	0xbe3e9aab	-0.18613689
216	0x3d5ded9c	0.05418168
217	0x3caf00f0	0.021362752
218	0x3e3f2795	0.18667443
219	0xbc7aaab0	-0.015299484
220	0xbccfc768	-0.025363639
221	0x3e45b657	0.19307838
222	0x3e0fc955	0.14041646
223	0xbe42b0eb	-0.19012801
224	0xbdac9650	-0.08427107
225	0x3e34826d	0.17627878
226	0x3e29a739	0.16567697
227	0x3d79301c	0.060836896
228	0x3e0e0903	0.13870625
229	0x3e35f593	0.1776946
230	0x3d301e28	0.04299751
231	0xbd215200	-0.039384842
232	0x3de7f77a	0.11326499
233	0xbbf41960	-0.007449314
234	0xbe2e2458	-0.17006052
235	0x3e16cddf	0.14726971
236	0x3defb0c6	0.11703639
237	0xbcab9c40	-0.02094853
238	0xbb0d74c0	-0.002158448
239	0xbdb947ea	-0.0904692
240	0x3b680280	0.003540188
241	0x3d56e2ac	0.052462265
242	0xbd89f90a	-0.067369536
243	0x3db61a72	0.08891763
244	0xbe34554a	-0.1761066
245	0xbcb41640	-0.021983266
246	0xbd542994	-0.051797464
247	0xbe3fc897	-0.18728863
248	0xbe2bde00	-0.16783905
249	0x3da59812	0.08085646
250	0xbc22be20	-0.009933025
251	0x3d9340da	0.07190104
252	0xbdd17ac3	-0.10228493
253	0xbd7158d4	-0.058922604
254	0x3e0b449f	0.13600396
255	0xbbf8f460	-0.007597491

conv0.bias f4 [64]
0	0x3d1e0914	0.038582876
1	0xbe199fe6	-0.15002403
2	0xbda1a7b0	-0.07893312
3	0x3b764ac0	0.0037581176
4	0x3e2c4999	0.1682495
5	0xbd6048ec	-0.054757044
6	0x3d8810b2	0.066438094
7	0x3dde8fb2	0.108672515
8	0x3e38026f	0.17969678
9	0xbdefdc07	-0.11711889
10	0x3a4e3a00	0.0007866919
11	0xbd84a210	-0.064762235
12	0x3e3e7ab9	0.18601502
13	0x3e4c0081	0.19922067
14	0xbdfb49e0	-0.1226995
15	0x3e1991c9	0.14997019
16	0xbdc45a77	-0.09587567
17	0xbdb71883	-0.08940222
18	0x3e0cc3d9	0.13746585
19	0x3dc1a54a	0.094553545
20	0xbe27ccb3	-0.1638668
21	0x3df8bc7e	0.12145327
22	0xbd440c54	-0.04786332
23	0x3e1275d3	0.14302759
24	0x3db8dace	0.09026109
25	0x3df209e2	0.11818291
26	0xbdb4db7d	-0.088309266
27	0x3e2a3a11	0.16623713
28	0x3b389c00	0.0028169155
29	0x3e2e9e5f	0.17052601
30	0xbe05e9e2	-0.130775
31	0xbdecbeb0	-0.11559808
32	0x3e2bc3b3	0.16773872
33	0x3d37f9e8	0.044916064
34	0xbbf86e00	-0.0075814724
35	0x3e006409	0.1253816
36	0xbe3032f8	-0.17206943
37	0xbdd3bba7	-0.10338526
38	0x3b938e60	0.0045030564
39	0xbd627c74	-0.05529447
40	0x3d1dfda8	0.038571984
41	0xbd781e98	-0.06057605
42	0x3e101f5f	0.14074467
43	0xbe2488d2	-0.16067818
44	0xbd692148	-0.056916505
45	0x3d20a108	0.03921607
46	0xbdffaba7	-0.12483912
47	0x3e0aa4eb	0.13539474
48	0xbddc5167	-0.10757714
49	0x3ddc71a6	0.10763864
50	0xbdd78fea	-0.10525496
51	0x3d3efbcc	0.04662685
52	0x3d9a1a06	0.07524495
53	0xbd604c18	-0.05476007
54	0x3c57b550	0.013165787
55	0x3e3aef27	0.18255292
56	0x3cca3530	0.024683565
57	0x3d711f6c	0.058867857
58	0x3c0f1430	0.00873284
59	0x3d025938	0.031823367
60	0x3e1afe4d	0.1513607
61	0x3dd0bfde	0.10192846
62	0xbe154ba2	-0.14579633
63	0xbc729aa0	-0.014807373

conv_spatial.weight f4 [64, 1, 7, 7]
0	0x3d0e7204	0.034776703
1	0xbdfc9743	-0.123335384
2	0xbaa38580	-0.0012475699
3	0xbd13dc78	-0.036098927
4	0x3d2cfc60	0.04223287
5	0xbd804bce	-0.062644586
6	0xbd53ca98	-0.05170688
7	0xbbce1b40	-0.0062898695
8	0xbd4a8472	-0.049442716
9	0xbd842bb7	-0.064536504
10	0xbcb5d254	-0.022195019
11	0x3d92f800	0.071762085
12	0x3d0059d4	0.031335667
13	0x3cb4b7f8	0.02206038
14	0x3ccd9168	0.02509375
15	0x3ded1b9e	0.11577533
16	0xbddd4df3	-0.10805883
17	0x3e0f2889	0.13980307
18	0x3dbb9f38	0.09161228
19	0xbdc78bd8	-0.0974347
20	0x3dc76dea	0.09737761
21	0xbe0bb23b	-0.13642208
22	0xbd60d306	-0.054888748
23	0x3d4d07c8	0.05005625
24	0xbdfa44dc	-0.12220165
25	0xbd90a1be	-0.070621
26	0x3cacf8b8	0.021114692
27	0xbd6248f2	-0.055245347
28	0x3d654ae8	0.05597964
29	0x3d9f3f82	0.07775785
30	0x3d98c70a	0.07459839
31	0x3df76142	0.12079097
32	0x3b91cc60	0.004449412
33	0x3d3a3c04	0.04546739
34	0x3dcfaaac	0.10139975
35	0xbd1210ca	-0.035660543
36	0xbbdd2240	-0.0067484677
37	0xbddc6435	-0.107613005
38	0xbde1c3c5	-0.11023668
39	0xbe06c90e	-0.13162634
40	0x3e00eaa5	0.1258951
41	0x3df1be4e	0.11803876
42	0xbdff6068	-0.1246956
43	0x3d6b9244	0.057512537
44	0xbd9fba60	-0.0779922
45	0xbe0991bb	-0.13434498
46	0x3def13d6	0.11673705
47	0x3dab9246	0.08377509
48	0xbd1448dc	-0.036202297
49	0x3e081149	0.13287844
50	0x3e0b0357	0.13575493
51	0xbd51046e	-0.051029615
52	0x3c793610	0.015210643
53	0x3e0312b9	0.12800111
54	0x3df742c6	0.12073283
55	0x3df4462e	0.11927448
56	0x3d0f69c8	0.03501299
57	0x3d55d3e8	0.052204043
58	0x3d9c4cb0	0.076318145
59	0x3df7b7c2	0.12095596
60	0x3cbddd30	0.02317676
61	0xbd32e4b2	-0.043675132
62	0x3e0f6d31	0.14006497
63	0x3df68c16	0.12038438
64	0x3d2d85bc	0.042363867
65	0x3deae11e	0.11468719
66	0xbdd59da3	-0.104304574
67	0xbdf84005	-0.12121586
68	0xbda01bd0	-0.07817805
69	0x3d089c60	0.033352256
70	0x3d27e610	0.04099089
71	0x3e03ab6d	0.12858362
72	0xbdd9bcde	-0.10631727
73	0xbe03ff60	-0.12890387
74	0xbc90bff8	-0.017669663
75	0xbe0b9542	-0.13631156
76	0x3d701f88	0.05862382
77	0xbd686e7c	-0.05674599
78	0xbda71c30	-0.08159673
79	0xbe116048	-0.14196885
80	0x3da0566a	0.07828982
81	0x3dddc74a	0.10829027
82	0xbc1d74d0	-0.00961037
83	0x3e04a121	0.12952091
84	0xbaa79c80	-0.001278773
85	0xbe0a4bc4	-0.13505465
86	0x3ca2b3c0	0.019861102
87	0xbd96e227	-0.07367354
88	0x3d16b888	0.036797076
89	0xbe07bad0	-0.13254857
90	0x3d15ca04	0.03656961
91	0x3e01d9e5	0.12680776
92	0x3d4f7728	0.050650746
93	0xbc7c9ad0	-0.01541777
94	0xbdb99bf8	-0.09062952
95	0x3dbc116a	0.09183009
96	0x3da27ac6	0.079335734
97	0x3e0d73f7	0.13813768
98	0xbdf81f0c	-0.12115297
99	0x3dab2668	0.08356935
100	0xbce71208	-0.02820684
101	0x3d0a22e8	0.033724695
102	0xbdb09483	-0.08622076
103	0xbdb55ede	-0.08855985
104	0x3e0a9973	0.13535099
105	0x3da2fc72	0.07958306
106	0xbdf27581	-0.11838818
107	0x3c069730	0.008214757
108	0x3db69a30	0.08916128
109	0x3e0d0985	0.13773163
110	0xbde893f5	-0.113563456
111	0xbe03772c	-0.12838429
112	0xbd7a4dee	-0.061109476
113	0xbd73cbca	-0.05952052
114	0x3cd357d0	0.025798708
115	0xbd7b99c0	-0.061425924
116	0xbdaf3e9e	-0.08556865
117	0x3da58c6c	0.08083424
118	0x3d3c6978	0.04599902
119	0xbdee5481	-0.116372116
120	0x3df0b232	0.11752738
121	0xbde254b3	-0.11051311
122	0x3e0e1289	0.13874258
123	0x3cfe6d80	0.031058073
124	0x3db18ec2	0.08669807
125	0xbd5bf4ee	-0.05370038
126	0x3c59a690	0.0132843405
127	0xbd74ad1c	-0.059735402
128	0x3e0c7673	0.1371706
129	0xbe0cb9ad	-0.13742705
130	0x3c4aae50	0.012370661
131	0x3dad7c70	0.08471
132	0xbcfe2064	-0.031021304
133	0x3d93f546	0.072245166
134	0x3db0707e	0.08615206
135	0xbda4d4aa	-0.08048375
136	0xbd879797	-0.0662071
137	0x3e015de7	0.12633477
138	0xbdd1409e	-0.10217403
139	0x3de9cc0e	0.114158735
140	0x3d3e50e4	0.046463862
141	0x3db2fc96	0.08739583
142	0xbdf40fea	-0.11917098
143	0x3d467c54	0.048458412
144	0xbd047380	-0.032336712
145	0xbe0748d4	-0.13211375
146	0xbd93a4ec	-0.07209191
147	0x3dfe2c42	0.12410785
148	0x3d8a5654	0.06754747
149	0x3d5d5230	0.05403346
150	0x3dc1edba	0.09469171
151	0x3bc24600	0.005928755
152	0xbd601aa6	-0.054712914
153	0xbdd999e0	-0.106250525
154	0x3d941dbe	0.07232235
155	0x3d764324	0.060122624
156	0x3d254550	0.040349305
157	0x3d0636e0	0.032767177
158	0xbde72b8e	-0.11287604
159	0xbe0abac3	-0.13547806
160	0xbccd059c	-0.025027089
161	0x3db7292c	0.089434
162	0x3d89af0a	0.06722839
163	0xbdece908	-0.11567885
164	0xbdfb4088	-0.12268168
165	0x3cd1cc80	0.025610209
166	0x3cfd9190	0.030953199
167	0x3da0476c	0.07826123
168	0x3e078ded	0.13237734
169	0x3cb555b0	0.022135586
170	0x3dacba82	0.08434011
171	0xbe044fbc	-0.12921041
172	0x3cfb3078	0.03066276
173	0xbdf0dce5	-0.11760882
174	0x3dd6d7de	0.10490392
175	0x3dbb21b6	0.09137289
176	0x3ceedec8	0.029158965
177	0xbd2bf2d8	-0.04197964
178	0x3de1ab06	0.11018948
179	0xbe123f27	-0.14281903
180	0x3c3fa750	0.011697605
181	0x3c74dc00	0.01494503
182	0x398a5a00	0.00026388466
183	0xbd6a27aa	-0.057166733
184	0xbddbd473	-0.10733881
185	0x3d86bf54	0.06579462
186	0xbd55b652	-0.052175827
187	0xbc8e3c10	-0.017362624
188	0xbddaddf0	-0.106868625
189	0x3d5bd2b0	0.053667724
190	0xbd837195	-0.064181484
191	0xbdf1b5da	-0.118022636
192	0xbdab3a18	-0.0836069
193	0x3d6ad750	0.057334244
194	0xbd7665b8	-0.0601556
195	0xbda93630	-0.082622886
196	0x3d93257e	0.071848854
197	0xbdb4a1ce	-0.08819924
198	0x3d07c690	0.03314835
199	0xbdcf2e15	-0.10116211
200	0xbc80dc50	-0.015730053
201	0xbd4b5358	-0.04964003
202	0x3dc12ee2	0.0943277
203	0xbc8f5980	-0.017498732
204	0xbb4da880	-0.0031380951
205	0x3d209254	0.03920205
206	0x3da8ddbc	0.082454175
207	0xbd11ad58	-0.035565704
208	0x3ca764e8	0.020433858
209	0x3debef72	0.1152028
210	0xbd6b542e	-0.057453327
211	0xbb99dee0	-0.004695758
212	0xbb93ece0	-0.0045143217
213	0xbd4fe1ca	-0.05075244
214	0x3cd48d48	0.025946274
215	0xbd89b24e	-0.06723462
216	0x3dba7472	0.091042414
217	0x3d8372d0	0.06418383
218	0xbe0cb838	-0.13742149
219	0x3bfe1420	0.007753864
220	0xbdfad281	-0.12247182
221	0xbcc826c8	-0.024432555
222	0xbd42f926	-0.047600888
223	0x3d50ba70	0.05095905
224	0x3db217c8	0.08695942
225	0x3e000cd9	0.12504901
226	0x3e00dfdb	0.12585394
227	0xbe0af012	-0.13568142
228	0x3c935ca8	0.017988518
229	0x3da9c196	0.08288877
230	0xbd19c5c6	-0.037542127
231	0x3ba124c0	0.004917711
232	0xbc84b918	-0.01620154
233	0x3ddaa01e	0.10675071
234	0x3de705da	0.11280413
235	0xbd99429e	-0.07483409
236	0x3d833a88	0.06407648
237	0x3dd48a5e	0.10377954
238	0xbe0bce18	-0.13652837
239	0xbda79308	-0.08182341
240	0x3dfb9282	0.122838035
241	0x3d8e16f8	0.06937975
242	0x3d924cfa	0.07143588
243	0x3d5e9480	0.05434084
244	0xbdc09b75	-0.09404651
245	0xbd439d18	-0.04775724
246	0x3d938a3c	0.072041005
247	0xbd997165	-0.074923314
248	0xbdff4ede	-0.124662146
249	0x3d2fe0fc	0.04293917
250	0x3d0e36f8	0.03472039
251	0xbdb969da	-0.09053393
252	0x3da4ef3a	0.08053441
253	0xbd13ac46	-0.036052965
254	0xbd8249ea	-0.06361754
255	0xbe02cdcf	-0.12773822

conv_spatial.bias f4 [64]
0	0x3dcabbae	0.09899078
1	0xba007500	-0.0004900247
2	0x3d57c530	0.052678287
3	0xbe0d7a8e	-0.13816282
4	0x3d67f2d8	0.05662808
5	0x3e043783	0.12911801
6	0xbdaf7bda	-0.08568545
7	0x3db0756c	0.086161464
8	0x3b093600	0.0020936728
9	0xbd3727ae	-0.044715576
10	0xbd0a424e	-0.03375464
11	0xbde3c61e	-0.11121772
12	0x3db733cc	0.08945426
13	0xbda2ecfe	-0.07955359
14	0xbc23e010	-0.010002151
15	0xbcec2624	-0.02882678
16	0xbe09a58c	-0.13442057
17	0x3cf3a2a0	0.029740632
18	0xbdb5281c	-0.08845541
19	0x3e04210b	0.1290323
20	0xbd28fd4a	-0.04125718
21	0xbdfa97d3	-0.122359894
22	0x3dbfee4a	0.09371622
23	0x3cdd3308	0.027001873
24	0xbd15ea0e	-0.036600165
25	0x3d17aae8	0.037028223
26	0x3e0b53a3	0.13606124
27	0xbdf3326c	-0.118748516
28	0x3cdd2f08	0.026999965
29	0xbe0f8d5e	-0.14018771
30	0xbd9f5495	-0.077798046
31	0x3de9b266	0.1141098
32	0x3db6c866	0.08924942
33	0x3dc722e6	0.09723453
34	0xbda866b5	-0.08222715
35	0x3d143b3c	0.036189303
36	0xbe0e8c50	-0.13920712
37	0xbdbdc438	-0.092659414
38	0x3dc27cb0	0.094964385
39	0x3dd67572	0.1047162
40	0x3dc155ac	0.09440169
41	0xbd803547	-0.06260162
42	0x3e0bb089	0.13641562
43	0xbca33ea4	-0.01992733
44	0x3dd6bfee	0.104858264
45	0xbb591800	-0.0033125877
46	0x3df7346a	0.12070544
47	0x3e0d3d89	0.13793005
48	0x3e105cd1	0.14097907
49	0x3a336a00	0.00068441033
50	0x3c98ba88	0.018643633
51	0x3dc289be	0.094989285
52	0xbe0c8570	-0.13722777
53	0xbdae0488	-0.08496958
54	0x3e0adc5b	0.13560621
55	0xbdae31de	-0.08505605
56	0xbdea512e	-0.11441265
57	0xbcb2849c	-0.021791749
58	0x3d3ba304	0.04580976
59	0x3dc9e06e	0.0985726
60	0x3e09e4e7	0.13466226
61	0xbded291e	-0.11580108
62	0xbd2f96a6	-0.04286828
63	0x3d12fee0	0.0358876

conv1.weight f4 [32, 64, 1, 1]
0	0xbde91f72	-0.11382951
1	0xbdb3b838	-0.08775371
2	0x3cd67740	0.02617991
3	0xbd3c37d8	-0.045951694
4	0xbcb01f40	-0.021499276
5	0x3dfd4b0a	0.12367828
6	0x3d527b98	0.0513874
7	0xbdbe74c6	-0.092996165
8	0xbd6e5ef4	-0.058196023
9	0xbda662f2	-0.08124341
10	0x3d95d5ae	0.07316147
11	0xbdd82218	-0.10553378
12	0x3da6671e	0.08125137
13	0xbdcd0a66	-0.10011749
14	0xbd88c5be	-0.06678341
15	0xbd8bbcd4	-0.068231255
16	0x3ddf2606	0.10895924
17	0x3d4f40c0	0.05059886
18	0xbc485c10	-0.012228981
19	0xbcf1f8f0	-0.029537648
20	0xbd48a284	-0.048983112
21	0xbdda862a	-0.10670121
22	0xbddb5cbe	-0.107110485
23	0xbb46c0c0	-0.003032729
24	0xbcfaf600	-0.03063488
25	0xbdab6c5a	-0.08370276
26	0x3cc0c028	0.023529127
27	0x3def1602	0.116741195
28	0xbb453880	-0.003009349
29	0xbd02cb90	-0.031932414
30	0x3de8634e	0.11347066
31	0xbcf9aff8	-0.030479416
32	0x3df6f04e	0.12057553
33	0xbdbc6aca	-0.09200056
34	0x3d192f2c	0.037398502
35	0x3d8123ce	0.06305657
36	0xbd6d4360	-0.057925582
37	0x3d1517dc	0.036399707
38	0x3c6afea0	0.014342934
39	0x3da572d0	0.08078539
40	0xbdab90c0	-0.08377218
41	0xbdaa25fa	-0.08308025
42	0xbc2bdbc0	-0.010489404
43	0x3de63b62	0.11241795
44	0xbbd99a80	-0.0066407323
45	0x3d6ea9e4	0.05826749
46	0xbda17f40	-0.07885599
47	0xbd27ac94	-0.040936068
48	0xbbf2e560	-0.0074125975
49	0xbcb1c3b0	-0.021699756
50	0xbd3b665c	-0.045751914
51	0x3cff57c8	0.031169787
52	0x3dc36eaa	0.09542592
53	0x3ded1f90	0.11578286
54	0xbd58892c	-0.052865192
55	0x3dafd0c8	0.08584744
56	0x3d8732dc	0.066014975
57	0xbdf97f8a	-0.12182529
58	0x3dc3eb1e	0.095663294
59	0xbd261088	-0.04054311
60	0xbc6823d0	-0.014168695
61	0x3c5aec90	0.013362065
62	0x3da68730	0.08131254
63	0x3d567cd4	0.05236514
64	0xbd60c790	-0.054877818
65	0x3c90c610	0.017672569
66	0xbdb0fa82	-0.086415306
67	0xbce920e0	-0.028458059
68	0x3d69dbb0	0.057094276
69	0x3de346e2	0.11097504
70	0x3df4762a	0.119366005
71	0xbd004914	-0.031319693
72	0xbdac9044	-0.08425954
73	0xbd847ffe	-0.06469725
74	0xbd75f62c	-0.06004922
75	0xbdd61110	-0.10452473
76	0x3d4c5ed0	0.049895108
77	0x3d85c0ee	0.06530939
78	0x3c942dc8	0.018088236
79	0x3ddfa0d2	0.10919346
80	0x3cc49618	0.023997352
81	0x3d97f970	0.07420623
82	0xbdbc7f44	-0.092039615
83	0x3db74f4e	0.08950673
84	0xbded4620	-0.11585641
85	0x3b767640	0.0037607104
86	0xbd7aa8b8	-0.06119606
87	0x3d2298d0	0.039696515
88	0xbdaad5a0	-0.08341527
89	0xbbef1220	-0.007295862
90	0x3dcf9704	0.10136226
91	0x3d0aa898	0.03385219
92	0xbd3a5cf4	-0.045498803
93	0x3d988564	0.07447317
94	0x3dae4c86	0.085106894
95	0xbc811488	-0.01575686
96	0x3d643460	0.05571401
97	0x3deb4664	0.11488035
98	0xbd670344	-0.0563996
99	0x3dacf6d0	0.08445513
100	0x3dab2eea	0.083585575
101	0x3d838f30	0.06423795
102	0x3d97401c	0.07385275
103	0xbde9649e	-0.11396144
104	0xbdbb5ff0	-0.09149158
105	0xbd5d07d4	-0.053962544
106	0xbd39f288	-0.04539731
107	0x3db18af4	0.08669081
108	0xbdc3416e	-0.09533964
109	0x3d38ce9c	0.045118913
110	0xbd756570	-0.05991119
111	0xbdb399f6	-0.087696
112	0xbdd7b0b6	-0.10531752
113	0xbc9967e8	-0.018726304
114	0x3d735f20	0.05941689
115	0x3dad220a	0.08453758
116	0xbd90df70	-0.07073867
117	0xbd5398f0	-0.051659524
118	0xbdd09c30	-0.101860404
119	0xbd802f58	-0.0625903
120	0xbd356980	-0.044290066
121	0xbdf53f26	-0.11974935
122	0xbdb4d464	-0.08829573
123	0xbc8de7d0	-0.01732245
124	0x3d9a19de	0.07524465
125	0xbd93235c	-0.07184479
126	0x3d76fc1c	0.060299024
127	0x3b9ca8e0	0.0047808737
128	0x3d4d00fc	0.050049767
129	0x3dbf568a	0.09342678
130	0xbc95da78	-0.01829265
131	0x3d551374	0.052020505
132	0xbdec5dc2	-0.115413204
133	0xbcbf4640	-0.023348927
134	0xbdaa32e0	-0.08310485
135	0xbd3e3a50	-0.04644233
136	0xbd22f3c4	-0.039783254
137	0xbc8f6a38	-0.017506704
138	0x3d9c5986	0.07634263
139	0x3c0e81e0	0.008697957
140	0xbd6faeac	-0.05851619
141	0xbcc73d40	-0.024321198
142	0xbdd08be0	-0.10182929
143	0xbdf8c878	-0.121476114
144	0xbc7ab2f0	-0.015301451
145	0x3cc49f48	0.024001732
146	0x3c94eda0	0.018179715
147	0xbc1f15b0	-0.009709761
148	0xba106a00	-0.00055089593
149	0xbdfec4ea	-0.12439902
150	0xbde0291e	-0.109453425
151	0xbd1a8a24	-0.037729397
152	0x3dd8bb96	0.10582654
153	0x3cb03de8	0.021513894
154	0x3d1597e4	0.036521807
155	0x3cbd2768	0.02309008
156	0xbde635b6	-0.11240713
157	0x3c834d58	0.016028091
158	0x3cd7dc40	0.02635014
159	0xbbbc8220	-0.005752817
160	0xbd4806bc	-0.048834547
161	0x3d131fbc	0.035918936
162	0xbddb8eda	-0.10720606
163	0xbdcf1c42	-0.101128116
164	0x3dabdcb4	0.08391705
165	0x3dd47c98	0.10375327
166	0x3c4a79f0	0.012358174
167	0xbdf24580	-0.11829662
168	0xbcd01788	-0.025401846
169	0xbdb52982	-0.088458076
170	0xbc85ea40	-0.01634705
171	0x3d01def0	0.03170675
172	0xbbe91860	-0.0071135014
173	0x3df98ca2	0.12185027
174	0x3bbb9040	0.005723983
175	0xbdd0f148	-0.10202271
176	0x3d985658	0.07438344
177	0xbc4ad570	-0.012379989
178	0xbc02aa50	-0.007975176
179	0xbd1fe628	-0.039037853
180	0x3dd4ad06	0.10384564
181	0x3d63135c	0.055438384
182	0xbd8480fa	-0.06469913
183	0x3d96af30	0.07357633
184	0x3dc0f29e	0.094212756
185	0x3c3e8db0	0.011630461
186	0x3d6f3cf4	0.05840774
187	0xbd2fb744	-0.042899385
188	0x3daaa922	0.08333041
189	0xbd714c48	-0.058910638
190	0x3db58dd6	0.08864944
191	0x3b803dc0	0.003913611
192	0x3db54978	0.08851904
193	0x3ddc90b4	0.107697874
194	0xbd4ea574	-0.050450757
195	0x3de54c4c	0.11196193
196	0xbdd6e218	-0.10492343
197	0xbda2aa32	-0.079426184
198	0xbdfb643e	-0.12274979
199	0xbc879dc0	-0.016554713
200	0xbd0d2348	-0.034457475
201	0x3d0051a4	0.03132786
202	0xbd648af4	-0.05579658
203	0xbcc788e0	-0.02435726
204	0x3d593180	0.053025723
205	0xbcfde4b8	-0.03099285
206	0x3dcea5b2	0.100901976
207	0xbdf9c4c8	-0.12195736
208	0x3da187f4	0.07887259
209	0xbd877758	-0.0661456
210	0xbdf9291c	-0.12166044
211	0xbd669e0c	-0.05630307
212	0x3d84eaa0	0.06490064
213	0x3d90bcf4	0.0706729
214	0x3ca09bb0	0.019605488
215	0xbd72aaec	-0.059245035
216	0xbdb3cd22	-0.0877936
217	0xbd44d460	-0.0480541
218	0xbdb8206c	-0.08990559
219	0xbd440608	-0.047857314
220	0xbd6177e8	-0.055045992
221	0x3d31b450	0.04338485
222	0xbd919dde	-0.07110189
223	0x3d1835a4	0.03716053
224	0x3d699a34	0.057031825
225	0x3cd22480	0.02565217
226	0xbce752e8	-0.028237775
227	0xbdb1b550	-0.08677161
228	0x3d9be3b8	0.07611793
229	0xbd8e99fa	-0.069629624
230	0x3d1e2eb8	0.038618773
231	0xbd042624	-0.032262936
232	0xbd59afb4	-0.05314608
233	0xbdca0b52	-0.098654404
234	0x3c60c380	0.013718486
235	0xbd87d754	-0.066328675
236	0x3dad307e	0.08456515
237	0x3d7f901c	0.062393293
238	0x3caeefd8	0.0213546
239	0xbd79d980	-0.06099844
240	0xbdb7f5f8	-0.08982462
241	0xbca71288	-0.020394579
242	0xbdf3ae78	-0.11898512
243	0xbba7f640	-0.005125791
244	0x3dbea442	0.093086734
245	0x3de8a176	0.11358921
246	0x3dada8a6	0.08479433
247	0x3d430274	0.04760976
248	0xbd62bb00	-0.05535412
249	0x3dbb72a2	0.09152724
250	0xbdbb3a0a	-0.091419294
251	0x3d423838	0.047416896
252	0x3d96b674	0.07359019
253	0x3dc841de	0.09778188
254	0x3bbe45a0	0.00580664
255	0x3ce7a458	0.028276607

conv1.bias f4 [32]
0	0x3d8dfb42	0.06932689
1	0x3ca86690	0.020556718
2	0xbcb947d0	-0.02261725
3	0x3dca661a	0.098827556
4	0x3c0828d0	0.008310512
5	0xbdb77bc0	-0.0895915
6	0x3d6a5484	0.057209507
7	0x3d16850c	0.036747977
8	0xbb861460	-0.0040917844
9	0xbdc3273a	-0.09528966
10	0xbdd640da	-0.10461588
11	0xbdb78a7c	-0.08961961
12	0x3dc75bd2	0.0973431
13	0xbdae7f18	-0.08520335
14	0xbdd283ba	-0.10279031
15	0xbdd9b20e	-0.10629664
16	0x3dd9d7cc	0.10636863
17	0xbdaa7fa2	-0.08325125
18	0xbdcd91e4	-0.10037592
19	0xbdd270e4	-0.102754384
20	0xbd3b8e30	-0.045789897
21	0x3dd637be	0.10459851
22	0x3d0f7194	0.035020426
23	0xb990f200	-0.00027646124
24	0x3d4b5b18	0.04964742
25	0xbd413fc0	-0.047179937
26	0x3d949294	0.0725452
27	0xbd94f9f2	-0.07274236
28	0xbce4d9c8	-0.027935877
29	0xbcf70180	-0.030152082
30	0x3ca6c8c0	0.020359397
31	0x3d2c2f34	0.042037204

conv2.weight f4 [32, 64, 1, 1]
0	0xbc000bf0	-0.007815346
1	0xbc8185f0	-0.015810937
2	0xbde10e60	-0.1098907
3	0xbbe74500	-0.007057786
4	0x3c556ab0	0.013025925
5	0x3df74456	0.12073581
6	0x3de4d712	0.11173834
7	0x3ded239a	0.11579056
8	0xbd42f380	-0.0475955
9	0xbdc42298	-0.09576911
10	0x3d8e9fb2	0.06964053
11	0xbdcd24d6	-0.100167915
12	0x3d3b5830	0.0457384
13	0x3d676e98	0.056501955
14	0xbd66f628	-0.056387097
15	0xbd2b9674	-0.04189153
16	0xbdfe288a	-0.12410076
17	0xbdf7eb3e	-0.12105416
18	0xbdd0e4bc	-0.101998776
19	0xbd8b9248	-0.0681501
20	0x3de003b2	0.10938205
21	0x3d35b320	0.04436028
22	0xbc9c2548	-0.019060746
23	0x3d940344	0.07227185
24	0xbc91d988	-0.017803922
25	0xbc46cb60	-0.012133449
26	0xbd8cd1a4	-0.06875923
27	0x3d7e4108	0.062073737
28	0xbca691b0	-0.020333141
29	0xbbabec40	-0.005246669
30	0xbd9d921e	-0.07693885
31	0x3d892fce	0.06698571
32	0x3d8c99c6	0.068652675
33	0x3d270f14	0.040785864
34	0x3de87dac	0.11352095
35	0xbd8a544c	-0.067543596
36	0x3d8337fa	0.06407161
37	0xbcafb4b8	-0.021448478
38	0x3d83650a	0.06415756
39	0xbd563688	-0.0522981
40	0xbc109730	-0.008825108
41	0x3ddf3de2	0.10900475
42	0x3d8b656a	0.068064526
43	0x3d8b3546	0.067972705
44	0xbdcc785c	-0.09983894
45	0x3cb09d38	0.021559343
46	0xbd8ccfa8	-0.06875545
47	0x3c1a9a80	0.00943625
48	0x3d019780	0.031638622
49	0x3c057ea0	0.0081478655
50	0x3d3a53f8	0.045490235
51	0x3dc6f120	0.0971396
52	0x3d300ec4	0.04298283
53	0x3db1efd8	0.08688325
54	0x3da6f12e	0.0815147
55	0xbd247894	-0.040154055
56	0xbd080db8	-0.03321621
57	0x3d4124f8	0.047154397
58	0xbdf3d60c	-0.119060606
59	0x3d82999c	0.06376955
60	0xbda4129a	-0.080113605
61	0x3d91e502	0.07123758
62	0xbd6e8134	-0.058228686
63	0xbda8ecd2	-0.08248295
64	0x3d132f8c	0.035934016
65	0x3dd2c63c	0.102917165
66	0xbdfbf14e	-0.123018846
67	0x3de73d50	0.11290991
68	0x3d190b50	0.037364304
69	0xbd63c01c	-0.05560313
70	0xbd953c62	-0.07286908
71	0xbb19af40	-0.0023450404
72	0xbd8bb248	-0.06821114
73	0xbdb074c8	-0.08616024
74	0x3dc44882	0.09584142
75	0xbcedc308	-0.029023662
76	0xbd297380	-0.041369915
77	0xbaaf1780	-0.0013358444
78	0x3daee2da	0.08539362
79	0x3d83e72a	0.064405754
80	0xbdc19796	-0.09452741
81	0xbc9a48e8	-0.018833593
82	0xbdd77394	-0.10520092
83	0xbcc73f98	-0.024322316
84	0xbdbc6e8a	-0.09200771
85	0xbd87638a	-0.066107824
86	0x3d9de088	0.077088416
87	0x3d70646c	0.05868952
88	0x3dc1dc88	0.09465891
89	0x3dbcf348	0.0922609
90	0xbb381840	-0.0028090626
91	0x3dc44978	0.095843256
92	0x3b83b4c0	0.00401935
93	0xbd789f74	-0.06069894
94	0xbd987080	-0.07443333
95	0x3da56f94	0.080779225
96	0xbbf1e460	-0.0073819607
97	0xbce4b020	-0.027916014
98	0xbd8928b2	-0.06697215
99	0xbd86a31c	-0.065740794
100	0xbdd9e148	-0.10638672
101	0x3dfb0ba2	0.12258078
102	0xbbdeac40	-0.006795436
103	0xbde53866	-0.11192398
104	0xbdf8d3b2	-0.12149753
105	0xbd1b67e4	-0.037940875
106	0xbabf6a80	-0.0014603883
107	0xbdcb972e	-0.099409446
108	0x3bcb85a0	0.0062109977
109	0xbdd7e9cc	-0.1054264
110	0x3de8d6f4	0.11369124
111	0xbda7fb14	-0.08202186
112	0xbd89ef6e	-0.06735121
113	0xbde1b132	-0.110201254
114	0xbd9cc878	-0.07655424
115	0xbcb46338	-0.022019967
116	0x3d4f1908	0.05056098
117	0x3dd36808	0.10322577
118	0xbdf5a6fc	-0.1199474
119	0xbca89f40	-0.020583749
120	0xbdfe33b8	-0.12412208
121	0xbdf51858	-0.11967534
122	0xbdeec1ce	-0.11658059
123	0x3caf7f38	0.021422967
124	0x3d9da898	0.07698172
125	0xbd7dcdd0	-0.061963856
126	0x3deabfc6	0.11462359
127	0xbcc75b88	-0.024335638
128	0x3c6a70c0	0.014309108
129	0x3daf2bb2	0.08553256
130	0xbb52cfc0	-0.0032167286
131	0xbd148320	-0.036257863
132	0xbdb63afc	-0.08897969
133	0x3dbe4ef4	0.09292403
134	0xbcd92e70	-0.026511401
135	0x3d860926	0.06544714
136	0x3c85c8c8	0.016331092
137	0xbda34992	-0.07973017
138	0x3da6a14e	0.08136235
139	0x3d00b6c0	0.031424284
140	0xbd8cd630	-0.068767905
141	0xbc01a440	-0.007912695
142	0xbcbe3d48	-0.02322258
143	0x3db388c2	0.08766319
144	0x3d2ca6b8	0.042151183
145	0x3db887c6	0.09010272
146	0x3d7ebd34	0.062192157
147	0xbc5934d0	-0.01325722
148	0xbdc55ed8	-0.09637231
149	0xbcdda470	-0.027055949
150	0x3d8c5fbc	0.068541974
151	0x3da8fa0e	0.08250819
152	0xbd683a78	-0.056696385
153	0xbd9e5c5e	-0.077324614
154	0x3daf677e	0.085646614
155	0xbdecbffc	-0.115600556
156	0xbd9cee9c	-0.076626986
157	0x3ce0ba40	0.02743256
158	0xbdc15c1a	-0.09441395
159	0x3cdcece0	0.02696842
160	0xbdb15a9c	-0.086598605
161	0xbc06b9a0	-0.008222967
162	0xbdb4eaac	-0.088338226
163	0xbca962f0	-0.02067706
164	0x3d4512ac	0.04811351
165	0x3d7157d0	0.058921635
166	0xbd29ea64	-0.041483298
167	0x3dd00d94	0.1015884
168	0xbc51e280	-0.012810349
169	0x3def1e14	0.11675659
170	0x3dc5d14e	0.09659062
171	0xbd8adc0e	-0.06780253
172	0xbcd2f388	-0.02575089
173	0x3cde56d0	0.027141005
174	0x3d331868	0.043724447
175	0x3dce3a1a	0.10069676
176	0xbd9d9f62	-0.076964155
177	0xbd6f0a70	-0.058359563
178	0x3d31f69c	0.043448076
179	0x3d94f036	0.07272379
180	0x3d7807a0	0.060554147
181	0xbcf6c2a8	-0.030122116
182	0xbdd0939a	-0.10184403
183	0xbd0afc60	-0.03393209
184	0xbd13c91c	-0.036080465
185	0x3d733d88	0.059384853
186	0x3d08e66c	0.033422872
187	0x3de809f0	0.113300204
188	0xbde64d14	-0.1124517
189	0xbd87fa80	-0.06639576
190	0xbd239464	-0.03993644
191	0xbc536b90	-0.012904063
192	0xbdc3a0ba	-0.095521405
193	0xbce08fb8	-0.02741228
194	0x3d8ec788	0.06971651
195	0xbdcdc440	-0.10047197
196	0x3de003b4	0.10938206
197	0x3ddfcfd0	0.10928309
198	0x3d7f4228	0.06231895
199	0xbd39350c	-0.045216605
200	0xbd475740	-0.048667192
201	0xbde7a196	-0.11310117
202	0xbbb3a860	-0.0054827183
203	0x3c112db0	0.00886099
204	0xbd82d69a	-0.06388588
205	0x3dcec8a0	0.1009686
206	0xbd7b659c	-0.0613762
207	0xbc9dca10	-0.01926139
208	0x3db27228	0.0871318
209	0xbd365c80	-0.04452181
210	0xbddc7b1c	-0.10765669
211	0x3cbdad78	0.023154005
212	0x3d9f9eda	0.077939704
213	0x3c2ecf90	0.010669604
214	0x3dca663a	0.098827794
215	0x3c0ea2e0	0.008705825
216	0xbde27d32	-0.11059035
217	0x3d614120	0.05499375
218	0xbdcc19b4	-0.0996584
219	0xbd61f770	-0.055167615
220	0xbd26e1b0	-0.040742576
221	0x3c4e7d90	0.012603179
222	0xbca97140	-0.020683885
223	0xbdd3903a	-0.103302434
224	0x3d52fcc8	0.051510602
225	0x3c6f5180	0.014606833
226	0x3de05ea2	0.1095555
227	0x3dbd295e	0.09236406
228	0x3d16ce4c	0.036817834
229	0x3dae89a0	0.08522344
230	0x3d8eb44c	0.06967983
231	0x3d5a6f14	0.05332859
232	0xbdaed194	-0.085360676
233	0xbd66cb48	-0.056346208
234	0x3d8dc3da	0.06922121
235	0xbca01a50	-0.019543797
236	0x3c437930	0.011930749
237	0xbd3260ec	-0.043549463
238	0x3c3f8cb0	0.011691257
239	0x3d25aed0	0.040449917
240	0xbdb0f9de	-0.086414084
241	0xbdeec762	-0.11659123
242	0x3d7773b4	0.060413077
243	0xbdaad364	-0.08341101
244	0xbd3968cc	-0.045265958
245	0x3d851730	0.06498563
246	0xbd169898	-0.03676662
247	0xbd508728	-0.050910145
248	0xbdc402f6	-0.09570877
249	0x3da2ea12	0.079548016
250	0xbd762934	-0.060097888
251	0xbdf4e4ea	-0.119577244
252	0xbd96f4c2	-0.073709026
253	0xbdcd22d4	-0.100164086
254	0x3cf97a38	0.030453786
255	0xbd204998	-0.039132684

conv2.bias f4 [32]
0	0x3d7e4214	0.062074736
1	0xbc13e9f0	-0.009027943
2	0xbdfa47aa	-0.122207
3	0x3db88702	0.09010126
4	0x3d82a904	0.063798934
5	0x3df2d7f8	0.11857599
6	0x3dd93a9a	0.106068805
7	0xbd990146	-0.07470946
8	0x3d479704	0.048728004
9	0x3bf66400	0.007519245
10	0xbda7fbd4	-0.08202329
11	0x3de9dcc8	0.11419064
12	0xbbe06a80	-0.0068486333
13	0xbdd61bf4	-0.104545504
14	0x3db75fca	0.08953817
15	0xbd108080	-0.035278797
16	0x3dc33bfa	0.09532924
17	0xbcc9c690	-0.024630815
18	0xbc5d03d0	-0.0134896785
19	0x3d81b74e	0.06333791
20	0xbc8796d8	-0.01655142
21	0x3deb28b0	0.1148237
22	0x3daf5586	0.08561234
23	0xbdeed0c8	-0.116609156
24	0xbdfbf378	-0.12302297
25	0xbd538250	-0.051637948
26	0x3df0bc6e	0.1175469
27	0xbce66680	-0.028125048
28	0xbd7d7bb0	-0.061885536
29	0xbdb1631a	-0.0866148
30	0xbde88e9e	-0.11355327
31	0xbd978868	-0.07399064

conv_squeeze.weight f4 [2, 2, 7, 7]
0	0x3cf49198	0.02985458
1	0xbd990351	-0.07471336
2	0xbd19c38c	-0.037540004
3	0xbdabf81e	-0.08396934
4	0x3cbef5a8	0.023310497
5	0x3d4ca9ac	0.0499665
6	0xbd1d93b8	-0.038470954
7	0xbc894774	-0.016757704
8	0xbd1f94aa	-0.038960136
9	0x3d8d5100	0.06900215
10	0x3bfd0090	0.0077210143
11	0xbd67343c	-0.0564463
12	0xbd5ddf91	-0.054168288
13	0x3da828d4	0.08210912
14	0xbdb3f19f	-0.0878632
15	0xbc8d4724	-0.017245837
16	0xbd26072e	-0.04053419
17	0x3c377cd0	0.011199191
18	0x3d433b90	0.047664225
19	0x3d3f88d8	0.046761364
20	0x3dbb199c	0.09135744
21	0x3d563e40	0.05230546
22	0xbd023516	-0.031788908
23	0xbda434de	-0.08017896
24	0xbd8ba635	-0.06818811
25	0xbd62774b	-0.055289548
26	0xbd9f9524	-0.07792118
27	0x3cf53e68	0.029936984
28	0x3dcc9de6	0.09991054
29	0x3d94dde2	0.07268883
30	0x3d5b1ffc	0.0534973
31	0x3cacc798	0.021091267
32	0xbc79f868	-0.015256979
33	0x3bf7fc40	0.0075679123
34	0xbd83917a	-0.06424232
35	0x3db856aa	0.09000905
36	0xbd768849	-0.060188565
37	0xbc234118	-0.00996425
38	0x3d9cbede	0.076535925
39	0xbc937438	-0.017999753
40	0xbdb5d094	-0.08877674
41	0x3db428c8	0.08796841
42	0xbd973bd7	-0.073844604
43	0x3b550140	0.0032501966
44	0xbcb02804	-0.021503456
45	0x3cd7a190	0.026322156
46	0xbc714c08	-0.0147276
47	0xbd59d3b7	-0.053180423
48	0x3d98fef4	0.074705034
49	0xbd0a4758	-0.033759445
50	0x3da98232	0.08276786
51	0xbd6d0043	-0.057861578
52	0xbdc8747b	-0.09787842
53	0x3d725598	0.05916366
54	0x3c294108	0.010330446
55	0xbb427aa0	-0.002967514
56	0xbd580ad6	-0.05274471
57	0x3d9a03e6	0.07520275
58	0x3d968226	0.073490426
59	0x3d6c60dc	0.05770956
60	0x3c2f3228	0.0106931105
61	0x3dac7eba	0.08422609
62	0x3cf2c090	0.029632837
63	0x3da066a4	0.07832077
64	0x3d8d25d2	0.06891979
65	0x3d2f8f7c	0.042861447
66	0x3d3dee60	0.04636991
67	0x3d0f2724	0.034949437
68	0xbdabb0b6	-0.08383314
69	0x3dbcb4c8	0.09214169
70	0x3c2d9730	0.010595128
71	0x3dcbb862	0.099472776
72	0x3cef0990	0.029179364
73	0x3d83934e	0.064245805
74	0x3b207e60	0.0024489388
75	0xbc9bc968	-0.019016936
76	0x3da0b7ee	0.07847582
77	0xbdc3b3cf	-0.0955578
78	0x3bc9cbd0	0.0061583295
79	0x3d06ca40	0.032907724
80	0xbd450bf0	-0.048107088
81	0xbaa60c00	-0.0012668371
82	0x3c4201a8	0.011841215
83	0xbd8152e8	-0.06314641
84	0x3d897664	0.06712034
85	0xbc4b38a0	-0.012403637
86	0x3cc4a140	0.024002671
87	0x3d10244c	0.035190865
88	0xbdad89ae	-0.08473526
89	0xbcb54290	-0.022126466
90	0xbdb54f76	-0.088530466
91	0x3ce17998	0.0275238
92	0x3c8bcb90	0.01706484
93	0xbdbf4f90	-0.09341347
94	0x3d8105cc	0.06299934
95	0x3d1d45f8	0.038396806
96	0x3d13975c	0.03603302
97	0x3dc3d4fe	0.095621094
98	0x3d3505d4	0.04419501
99	0x3c83d74c	0.016093872
100	0x3d53e2d4	0.051729992
101	0x3d0e4ac8	0.034739286
102	0xbd84cbac	-0.0648416
103	0xbb1885e0	-0.0023273155
104	0xbc0c2860	-0.008554548
105	0xbc7d6ee8	-0.015468337
106	0xbd0a1366	-0.033709906
107	0x3d4edb64	0.050502196
108	0x3cdeec40	0.027212262
109	0xbd821290	-0.06351197
110	0xbd25ebbe	-0.040508024
111	0xbdcdcc5b	-0.10048743
112	0x3b544c40	0.0032394081
113	0x3c0b4648	0.008500643
114	0x3bf48ed0	0.0074633136
115	0xbc620850	-0.013795927
116	0x3c604c78	0.013690107
117	0xbda60610	-0.08106625
118	0x3cea5078	0.028602824
119	0xbd791994	-0.06081541
120	0xbc961310	-0.018319637
121	0x3c0b3770	0.008497104
122	0x3d9efeee	0.07763468
123	0xba253680	-0.00063023716
124	0xbcc3d4bc	-0.02390515
125	0x3da09f66	0.07842903
126	0xbd3411ff	-0.043962475
127	0x3d965dec	0.07342133
128	0xbd831d4c	-0.06402072
129	0xbd004c4a	-0.031322755
130	0xbd14979a	-0.03627739
131	0x3d83aab6	0.06429045
132	0x385ba800	5.237013e-05
133	0xbc0e99f8	-0.008703701
134	0x3d61ba58	0.055109352
135	0x3da60dcc	0.081081
136	0xbcefd0f0	-0.029274434
137	0x3cc34ab8	0.02383934
138	0xbd9d82cf	-0.076909654
139	0xbd8e38df	-0.06944441
140	0xbb33e260	-0.0027448162
141	0x3c51bdc0	0.012801588
142	0xbcd62478	-0.026140437
143	0xbce708d4	-0.028202452
144	0x3d0d75dc	0.034536228
145	0x3d9a5af4	0.07536879
146	0xbd618b93	-0.05506475
147	0xbd834c86	-0.0641108
148	0x3dc78638	0.09742397
149	0x3bf393d0	0.007433392
150	0x3d7bb764	0.06145419
151	0x3c994a34	0.01871214
152	0xbdce805c	-0.10083076
153	0x3d924004	0.07141116
154	0x3d979982	0.07402326
155	0xbd9e3c00	-0.07726288
156	0xbcdb0cc0	-0.026739478
157	0xbc33a340	-0.010964215
158	0x3c268d50	0.010165527
159	0xbd202a8f	-0.039103087
160	0xbb7d5c20	-0.0038659647
161	0xbdba3366	-0.09091835
162	0x3bf80990	0.0075694993
163	0x3da1dd16	0.07903497
164	0xbc35ae98	-0.01108899
165	0x3d2afa94	0.041742876
166	0x3d372e08	0.044721633
167	0xbb87f240	-0.0041487515
168	0x3d0a62e8	0.03378573
169	0xbd57cf8e	-0.052688174
170	0x3d28ac90	0.041180193
171	0xbdc2632c	-0.09491572
172	0x3daf46ce	0.08558427
173	0xbcdeb210	-0.027184516
174	0x3ce0e008	0.027450576
175	0xbdb20bb3	-0.08693638
176	0x3d87bc80	0.066277504
177	0x3d942db0	0.07235277
178	0x3d252934	0.040322497
179	0xbd1d93a2	-0.03847087
180	0x3d80250c	0.06257066
181	0x3c84a490	0.01619175
182	0x3c4623f0	0.012093529
183	0x3cfcb790	0.030849248
184	0x3b7a7800	0.0038218498
185	0xbd8674fc	-0.06565282
186	0x3cb64694	0.022250451
187	0xbd83e522	-0.06440188
188	0x3d13ed70	0.03611511
189	0x3d86091a	0.06544705
190	0xbc95d7f8	-0.018291458
191	0x3dc5bcfa	0.09655185
192	0x3d5fcf98	0.054641336
193	0x3d2618f0	0.040551126
194	0x3d08bf18	0.033385366
195	0xbd97a96f	-0.07405364

conv_squeeze.bias f4 [2]
0	0x3db97986	0.09056382
1	0x3ce6e648	0.028185979

conv.weight f4 [64, 32, 1, 1]
0	0x3c700240	0.014648974
1	0xbe204b08	-0.15653622
2	0x3d7b6a44	0.06138064
3	0xbd88e403	-0.06684115
4	0x3e0da8f9	0.13833989
5	0xbc272760	-0.010202259
6	0xbd0c10a4	-0.034195557
7	0xbe2150b6	-0.15753445
8	0xbc1a17c0	-0.0094050765
9	0xbd06def8	-0.032927483
10	0x3d94dd5e	0.07268785
11	0x3d143eb0	0.036192596
12	0x3be468a0	0.00697048
13	0x3dee300a	0.116302565
14	0xbd95178c	-0.07279882
15	0x3e2bbbcb	0.16770856
16	0xbe0fd5d1	-0.14046408
17	0xbe2fe339	-0.17176522
18	0x3e1b8e13	0.15190916
19	0xbd949710	-0.072553754
20	0x3d2258a4	0.039635316
21	0x3d66d138	0.05635187
22	0xbc968d10	-0.01837781
23	0xbd916e60	-0.071011305
24	0xbe04c000	-0.12963867
25	0xbddda267	-0.108219914
26	0xbc9defe0	-0.01927942
27	0xbe1be0fe	-0.15222546
28	0x3decb21a	0.11557408
29	0x3e02ae7d	0.12761874
30	0x3e178641	0.14797308
31	0xbe301924	-0.1719709
32	0x3dc643b2	0.096808806
33	0x3dff57e2	0.12467934
34	0xbb93a9c0	-0.0045063198
35	0x3e190a9d	0.14945455
36	0x3dadedf2	0.0849265
37	0xbc448870	-0.01199542
38	0xbd37993c	-0.04482387
39	0x3de7295e	0.11287187
40	0xbe17d48a	-0.14827171
41	0x3c719fe0	0.01474759
42	0xbdf9a740	-0.121901035
43	0x3e20105d	0.15631242
44	0x3e2bed3f	0.16789721
45	0x3aed0000	0.0018081665
46	0x3c74c210	0.014938846
47	0x3dd0b0ba	0.10189958
48	0xbb8d7020	-0.004316345
49	0x3d482d28	0.04887119
50	0x3ccb0810	0.024784118
51	0xbe10bb68	-0.1413399
52	0xbe08da0c	-0.13364428
53	0x3dfb0666	0.1225708
54	0x3e1de507	0.15419398
55	0xbdc77a50	-0.09740126
56	0x3c99f580	0.018793821
57	0xbd1e13ac	-0.03859298
58	0x3cbb2538	0.022844896
59	0x3e09f5d3	0.13472681
60	0x3c9aec90	0.01891163
61	0xbd6f5442	-0.058429964
62	0x3e1acf9d	0.1511826
63	0xbd3e9690	-0.046530306
64	0xbd0b7040	-0.034042597
65	0xbd2d9b50	-0.042384446
66	0xbdfc006f	-0.1230477
67	0x3d90014c	0.07031497
68	0x3de02bee	0.10945879
69	0x3df4fc7a	0.119622186
70	0x3cc5ea18	0.024159476
71	0xbc8eac48	-0.017416134
72	0xbe1a7d4d	-0.15086861
73	0x3e2bccc9	0.16777338
74	0x3d0ab264	0.033861533
75	0xbdf9d856	-0.12199466
76	0x3d9f2272	0.07770242
77	0xbe2fcdf6	-0.17168412
78	0xbdfdef0e	-0.12399112
79	0x3dc97e4e	0.09838544
80	0xbdd0a34f	-0.10187399
81	0x3ddaf36e	0.10690962
82	0x3d7c60f8	0.061615914
83	0xbd9c1771	-0.076216586
84	0xbe3231d4	-0.1740182
85	0xbe11978a	-0.14217964
86	0xbd2c8c78	-0.04212615
87	0x3cfb7f00	0.030700207
88	0x3da908ce	0.082536325
89	0xbd82e8e8	-0.063920796
90	0xbe1ff271	-0.15619828
91	0x3ddd9c16	0.10820787
92	0x3b9d8fe0	0.004808411
93	0x3d88ae2c	0.06673846
94	0xbd231394	-0.039813593
95	0xbe00b1fc	-0.12567896
96	0x3d04e430	0.03244418
97	0xbdbd01e4	-0.09228876
98	0x3d53c640	0.051702738
99	0x3dadbaee	0.0848292
100	0xbe054340	-0.13013935
101	0x3de4453e	0.111460194
102	0xbd847633	-0.06467857
103	0xbc15cdb0	-0.009143278
104	0xbded137c	-0.11575982
105	0xbe31d9f7	-0.17368303
106	0x3c0dd400	0.008656502
107	0x3e27063f	0.16310976
108	0xbe3225e9	-0.17397274
109	0x3a3b5e00	0.0007147491
110	0x3df397e2	0.11894204
111	0xbd87fb93	-0.06639781
112	0x3d23d358	0.039996475
113	0x3d907404	0.07053378
114	0x3de355c6	0.11100344
115	0xbe216b26	-0.1576353
116	0x3e07fef1	0.13280846
117	0xbd2ceba0	-0.042216897
118	0xbd94691f	-0.07246613
119	0x3d23324c	0.03984289
120	0xbd5dec34	-0.05418034
121	0x3d94ae54	0.07259813
122	0x3c014ae0	0.007891387
123	0x3d0e1fb0	0.03469819
124	0x3dc87516	0.09787957
125	0x3d3747c8	0.04474619
126	0xbce8c740	-0.028415322
127	0x3e2da3cf	0.1695702
128	0x3dcc17fe	0.09965514
129	0x3d242294	0.04007204
130	0x3c493b00	0.012282133
131	0x3e09bf25	0.13451822
132	0xbdfdec5c	-0.123985976
133	0xbda03626	-0.07822828
134	0xbde50296	-0.11182134
135	0x3dc83cd6	0.097772285
136	0xbdad2979	-0.08455176
137	0xbde7c894	-0.11317554
138	0x3df31f86	0.11871247
139	0x3d2ed710	0.04268557
140	0x3dd25b7e	0.10271357
141	0xbd0392c4	-0.03212239
142	0x3c95d5d0	0.01829043
143	0xbcf37c20	-0.029722273
144	0xbd84e0c6	-0.06488185
145	0xbe08eb2b	-0.1337096
146	0x3e26f62b	0.16304843
147	0x3d9d9a86	0.07695489
148	0xbde47f74	-0.11157122
149	0xbb0bbc80	-0.0021322072
150	0xbc4043f0	-0.011734948
151	0xbd5fcc66	-0.05463829
152	0x3bfadd00	0.00765574
153	0x3d81dac4	0.06340554
154	0x39b8e200	0.00035263598
155	0x3e1c9073	0.15289478
156	0x3bb42440	0.0054974854
157	0x3dbcf5c2	0.09226562
158	0xbe2683e2	-0.16261247
159	0x3c958f70	0.018256873
160	0xbdd91654	-0.10599962
161	0xbe1dafe7	-0.15399133
162	0x3ca65688	0.020304933
163	0xbdb05eb3	-0.086118124
164	0xbcc137f0	-0.023586243
165	0x3e0bbebd	0.1364698
166	0x3ce53020	0.02797705
167	0x3dea8f82	0.11453153
168	0x3dc4e5c2	0.09614135
169	0x3d9cc052	0.0765387
170	0x3e0b1d2d	0.13585348
171	0xbc937ee0	-0.018004835
172	0xbe1aa0b0	-0.1510036
173	0xbe219e53	-0.15783052
174	0xbd85b855	-0.06529299
175	0x3d51cacc	0.051218793
176	0x3c277be0	0.010222405
177	0x3e075c3d	0.1321878
178	0x3deceee2	0.11569001
179	0xbe1cb0d0	-0.15301824
180	0x3e1cbe1f	0.153069
181	0xbdf455ca	-0.119304255
182	0x3ded3b4e	0.11583577
183	0x3c768630	0.015046641
184	0xbe2ec8cd	-0.17068787
185	0xbdaed7d9	-0.085372634
186	0xbd6e45dc	-0.05817209
187	0x3c5362b0	0.012901947
188	0x3d12b4f0	0.035817087
189	0x3e290cc1	0.16508771
190	0x3d211d88	0.039334804
191	0xbd908116	-0.07055871
192	0x3e1a4cab	0.15068309
193	0x3d535178	0.051591367
194	0xbd0ea600	-0.03482628
195	0x3e002af9	0.12516393
196	0xbda8009c	-0.08203241
197	0xbd6c8346	-0.05774238
198	0xbe121516	-0.14265856
199	0x3cdc34d8	0.026880667
200	0xbe20a182	-0.1568661
201	0xbe181441	-0.14851476
202	0x3cf298b0	0.029613823
203	0x3e15f8bf	0.1464567
204	0xbe103c90	-0.14085603
205	0xbcb74458	-0.022371456
206	0x3d1ae5d0	0.037816823
207	0x3dc657aa	0.09684689
208	0x3e312fc9	0.17303385
209	0x3dd11f3e	0.10211037
210	0xbd62b320	-0.05534661
211	0x3d713994	0.0588928
212	0xbe030f48	-0.12798798
213	0x3d249830	0.0401842
214	0xbd373a8c	-0.04473357
215	0xbd54b080	-0.051926136
216	0x3dc07c62	0.09398724
217	0x3e208253	0.15674715
218	0x3c05b5d0	0.008161023
219	0xbdffee10	-0.12496579
220	0x3e06ccf9	0.13164128
221	0xbdeeadde	-0.11654256
222	0x3cdf0a88	0.027226701
223	0x3e2cc56b	0.16872184
224	0xbd9c1d7d	-0.07622812
225	0x3c973748	0.018458977
226	0xba892b80	-0.0010465235
227	0xbe2bc7d9	-0.16775455
228	0x3dd7dd4a	0.105402544
229	0x3c7d6d40	0.015467942
230	0x3dbd46e6	0.092420384
231	0xbc83c7d8	-0.016086504
232	0x3d81ba32	0.06334342
233	0x3e1d661f	0.15370987
234	0xbddf0b18	-0.10890788
235	0xbd39a3a8	-0.04532209
236	0x3dea916a	0.11453517
237	0xbdd75d1d	-0.10515807
238	0xbd632bc0	-0.055461645
239	0x3c70aa30	0.014689013
240	0xbd88a91d	-0.06672881
241	0x3de0f816	0.10984819
242	0xbe2fe9ee	-0.17179081
243	0x3e182879	0.14859189
244	0x3d9d4692	0.07679476
245	0xbcb36638	-0.021899328
246	0xbd6ec298	-0.058291048
247	0x3c0f2b60	0.008738369
248	0x3e01eaf1	0.1268728
249	0xbc547bf0	-0.012969002
250	0xbe10b806	-0.141327
251	0xbc04ffe0	-0.008117646
252	0xbd058a08	-0.03260234
253	0x3d5ea094	0.054352358
254	0xbd822739	-0.063551374
255	0xbd103e48	-0.035215646

conv.bias f4 [64]
0	0xbdb435ef	-0.087993495
1	0x3cbe6cc8	0.02324523
2	0xbdb1cc8d	-0.08681593
3	0xbe222847	-0.15835677
4	0x3dafaeca	0.0857826
5	0x3cdbad00	0.026815891
6	0xbe2576a1	-0.16158535
7	0xbdf0156c	-0.11722836
8	0xbd77d730	-0.060507953
9	0xbe2e6a98	-0.1703285
10	0xbc8f5488	-0.017496362
11	0x3e3044c5	0.17213733
12	0xbd9b3d75	-0.075800814
13	0xbd80ac18	-0.06282824
14	0xbe1bd040	-0.1521616
15	0xbd5c5c40	-0.053798914
16	0x3dd475f6	0.10374062
17	0x3d99b57e	0.0750532
18	0xbd9bafe5	-0.076019086
19	0x3e2246f3	0.15847377
20	0xbd6d9394	-0.05800207
21	0x3e06662d	0.13124914
22	0xbcaac2a0	-0.020844758
23	0xbcab1790	-0.020885259
24	0xbbd5b700	-0.0065220594
25	0x3db0e956	0.08638255
26	0xbde0547c	-0.10953614
27	0x3d788368	0.060672194
28	0xbe2dc649	-0.16970171
29	0x3e32e15f	0.17468785
30	0xbd62391a	-0.055230238
31	0xbe0171ef	-0.12641118
32	0x3d8d1192	0.06888117
33	0xbe2222f4	-0.15833646
34	0x3dd5a8c2	0.104325786
35	0xbe15345a	-0.14570752
36	0x3e26c539	0.16286172
37	0xbe01dc64	-0.12681729
38	0x3e2baf0b	0.16765992
39	0xbe0c0fce	-0.13677904
40	0xbe01d043	-0.12677102
41	0xbcaa3470	-0.020776957
42	0xbde6030f	-0.11231052
43	0x3d795eec	0.06088154
44	0x3db27a5a	0.08714743
45	0x3d3ddd58	0.046353668
46	0xbdcb7837	-0.099350385
47	0x3c983ab8	0.018582687
48	0xbd614724	-0.054999486
49	0xbe04e226	-0.12976894
50	0xbc265cc0	-0.010153949
51	0x3d3cdc00	0.046108246
52	0xbdc26e21	-0.09493662
53	0xbe317c40	-0.17332554
54	0xbd72a048	-0.059234887
55	0x3dfdb892	0.123887196
56	0x3dc77d4a	0.09740694
57	0x3dc3fbf6	0.09569542
58	0xbd282b44	-0.041056886
59	0xbdcec5ae	-0.10096298
60	0xbd1f91b8	-0.038957328
61	0x3e217859	0.15768565
62	0xbda0efc4	-0.07858232
63	0xbd70bf3a	-0.058776118
